models/recommender_model.tflite (tflite, 46716 bytes, 4 tensors)

arith.constant f4 [147, 1]
0	0x3d3e39e0	0.046441913
1	0x3e80589c	0.25067604
2	0xbefca1ea	-0.4934228
3	0xbe549d51	-0.20763136
4	0x3f0b8621	0.5450154
5	0x3f651fbe	0.8950156
6	0x3f260e57	0.6486563
7	0xbf4a1059	-0.78931195
8	0xbe0cd641	-0.13753606
9	0x3e9ac93d	0.30231658
10	0xbf6ae43f	-0.91754526
11	0x3d1be542	0.038060434
12	0xbed4d155	-0.41565958
13	0x3ed8de10	0.4235692
14	0x3c8738c4	0.01650656
15	0x3e07be1f	0.13256119
16	0xbe8a32c1	-0.26991847
17	0x3f0757b9	0.5286823
18	0x3e6ad187	0.22931491
19	0x3ef51e62	0.47874743
20	0x3f244ecf	0.6418275
21	0xbf1c6dee	-0.6110524
22	0x3f762d7d	0.9616316
23	0x3f5cb7b8	0.8621783
24	0x3ee4af72	0.44665104
25	0x3ede0834	0.43365633
26	0x3f607f63	0.87694377
27	0xbdd112f7	-0.102086954
28	0x3f0e5cde	0.55610454
29	0x3f8a3a69	1.0799075
30	0xbea3139f	-0.31850907
31	0x3ead73dd	0.3387746
32	0xbe4a21ad	-0.19739409
33	0x3e93ea05	0.2888948
34	0x3ecdd75e	0.40203375
35	0x3dd725c1	0.10505248
36	0x3f47167f	0.777687
37	0xbf23c2f6	-0.6396936
38	0x3f73be87	0.95212597
39	0xbf2e5f4b	-0.68114156
40	0xbe71c1c0	-0.23609066
41	0xbeb40ba8	-0.35165143
42	0x3ea8a87a	0.32941037
43	0xbea15792	-0.31512123
44	0xbdcbbd4c	-0.09948215
45	0xbee023b8	-0.4377725
46	0x3e9d064e	0.30668873
47	0xbed326a9	-0.41240433
48	0xbed84c12	-0.42245537
49	0xbea15ba7	-0.31515238
50	0xbec91707	-0.3927538
51	0x3f0384db	0.51374596
52	0xbf02aac7	-0.51041836
53	0xbd5b5b70	-0.053554
54	0x3ee65411	0.44986013
55	0xbde76e6a	-0.11300357
56	0x3e9f7aa1	0.31148246
57	0xbf2518f5	-0.64491206
58	0x3e7c31af	0.24628328
59	0x3e8085d6	0.2510211
60	0xbc09eebf	-0.008418738
61	0x3efdce05	0.49571243
62	0xbe257167	-0.16156541
63	0xbee97751	-0.45598844
64	0xbe878220	-0.26466465
65	0xbe9a6b67	-0.30160066
66	0xbf1b1e2b	-0.6059291
67	0x3f9c1218	1.2193022
68	0x3eeabbee	0.45846504
69	0xbe9f9ec9	-0.3117583
70	0xbf2ac5eb	-0.6670825
71	0xbf03ce15	-0.5148633
72	0xbd0c18d6	-0.034203373
73	0x3eec30a7	0.4613087
74	0xbf0223f3	-0.50836104
75	0xbef5c3c2	-0.48000914
76	0xbf1d1f90	-0.61376286
77	0x3f017cd0	0.50581074
78	0x3dcb3931	0.09923018
79	0xbe6ff2c6	-0.23432454
80	0x3ee83ce9	0.4535897
81	0xbeb1d6bb	-0.3473414
82	0x3ec17872	0.37787205
83	0x3f6161d3	0.8803989
84	0xbed5fd39	-0.41794756
85	0xbe5e003e	-0.2167978
86	0x3eb630db	0.3558415
87	0xbdfad698	-0.12247962
88	0xbee2d551	-0.44303373
89	0x3ec5c307	0.38625357
90	0xbe00ce99	-0.12578811
91	0x3ef09325	0.46987262
92	0xbf02431c	-0.5088365
93	0x3d658265	0.056032557
94	0xbe4bf7c5	-0.19918735
95	0xbe97e9e8	-0.29670644
96	0x3f1cde96	0.6127714
97	0xbf02f710	-0.5115824
98	0xbeb244c7	-0.34818098
99	0xbecff512	-0.4061666
100	0xbe3e921e	-0.18610427
101	0x3ebe84f7	0.3721082
102	0xbf07b1de	-0.5300578
103	0x3d6ab1e1	0.057298545
104	0xbccc060d	-0.024905229
105	0x3ec0ab5b	0.37630734
106	0xbed529a2	-0.41633326
107	0xbf18d42e	-0.5969876
108	0xbed89de0	-0.4230795
109	0xbe4b7293	-0.19867925
110	0x3e93bf86	0.28857058
111	0xbe02b40c	-0.12763995
112	0xbe6d71bd	-0.23187919
113	0xbe38b39f	-0.1803727
114	0x3ef99413	0.48745784
115	0x3e153d66	0.14574203
116	0x3d9b32c9	0.07578046
117	0xbe0f6b12	-0.14005688
118	0xbeb209f7	-0.34773228
119	0x3d3e7bd1	0.0465048
120	0xbf11cbfc	-0.5695188
121	0x3f02998f	0.5101556
122	0x3ec3145c	0.3810147
123	0x3e333ad1	0.17502905
124	0xbeb67c18	-0.3564155
125	0xbe01ea6b	-0.1268708
126	0x3f06809c	0.5253999
127	0xbefabfb9	-0.48974398
128	0xbf25121e	-0.6448077
129	0x3ea0893c	0.31354702
130	0xbd0f13c7	-0.03493097
131	0xbed38fbe	-0.41320604
132	0xbec22276	-0.37916917
133	0xbe24ac47	-0.16081344
134	0xbf1e5eee	-0.618636
135	0xbefe028a	-0.49611312
136	0xbd079919	-0.03310499
137	0xbec938b8	-0.39301085
138	0xbe982571	-0.29716066
139	0xbec5834c	-0.38576734
140	0x3ded7d31	0.11596144
141	0xbeba7bb1	-0.36422494
142	0xbf02534f	-0.5090837
143	0x3ece1958	0.4025371
144	0x3e90eb00	0.2830429
145	0x3eb97045	0.36218467
146	0xbed01ff8	-0.4064939

arith.constant1 f4 [147, 50]
0	0x3df4afc6	0.119475886
1	0xbdc04bbc	-0.09389445
2	0xbd83e314	-0.06439796
3	0xbd66c708	-0.056342155
4	0x3db6a479	0.089180894
5	0x3ddc0662	0.10743405
6	0xbe1a601c	-0.15075725
7	0x3daa4a9c	0.08315012
8	0x3cb6cc28	0.022314146
9	0xbdf51856	-0.11967532
10	0x3cd6bdd4	0.026213564
11	0x3e04f888	0.12985432
12	0xbc878679	-0.016543614
13	0xbe0c4341	-0.1369753
14	0xbe0ea137	-0.13928686
15	0x3d4108f0	0.047127664
16	0xbdd12fb6	-0.10214178
17	0x3da2be4b	0.07946452
18	0x3cf708c4	0.030155547
19	0x3d0926a3	0.033484112
20	0x3d91a895	0.071122326
21	0x3e3f711a	0.18695489
22	0x3d8f69dc	0.07002613
23	0xbd0a53c6	-0.0337713
24	0x3ca78641	0.02044976
25	0x3df59e3e	0.11993073
26	0xbe1d0043	-0.15332131
27	0x3e125229	0.14289154
28	0x3d74d089	0.059769187
29	0xbe28b3d1	-0.16474845
30	0xbd7ca800	-0.061683655
31	0xbe05638e	-0.13026258
32	0xbe3b3dd0	-0.18285298
33	0x3c49c51e	0.012315063
34	0xbe0ffb17	-0.14060627
35	0xbe1b691c	-0.15176815
36	0x3df9c5bc	0.12195918
37	0xbe038b8e	-0.12846205
38	0xbe0b4194	-0.13599235
39	0x3dac8a2d	0.084247924
40	0xbe0678c7	-0.1313201
41	0xbd2ed611	-0.04268462
42	0xbd05e6c1	-0.032690767
43	0xbdeb2660	-0.11481929
44	0x3e42e23a	0.19031611
45	0x3dc97171	0.0983609
46	0x3e014f79	0.12627973
47	0xbcb63c01	-0.022245409
48	0xbe6ea160	-0.23303747
49	0xbdcb73de	-0.09934209
50	0xbe15ba74	-0.14621907
51	0x3d39963a	0.045309283
52	0x3e124dd2	0.14287499
53	0xbd4343d0	-0.047672093
54	0x3cc427c1	0.023944737
55	0x3d07a415	0.033115465
56	0x3d1140a7	0.035462048
57	0x3d5c69c4	0.053811803
58	0xbe40658f	-0.18788742
59	0x3d0bc02e	0.034118824
60	0x3e81509e	0.2525682
61	0x3e3770d7	0.17914139
62	0xbdc0f608	-0.09421927
63	0x3e012508	0.12611783
64	0xbe7bfdc2	-0.2460852
65	0x3e47d54e	0.19514963
66	0xbe3b2acf	-0.18278049
67	0xbd6d2c35	-0.057903487
68	0xbd3b2fb6	-0.045699798
69	0xbd85ecad	-0.06539283
70	0xbe36eb4c	-0.17863196
71	0x3dd9015e	0.10595964
72	0xbe184fc2	-0.14874175
73	0xbdcd732d	-0.10031734
74	0x3c5159db	0.012777771
75	0x3d8d5435	0.06900827
76	0x3dc87385	0.097876586
77	0x3c0bff3f	0.008544742
78	0x3e03e341	0.12879659
79	0x3a521194	0.00080134836
80	0xbd35ac51	-0.044353787
81	0xbe143313	-0.14472608
82	0xbd29ad67	-0.041425135
83	0xbde9663a	-0.11396451
84	0x3d8942b3	0.06702175
85	0x3df25a88	0.11833674
86	0x3d1bc433	0.038028907
87	0x3e4eb465	0.20186003
88	0x3cd91eac	0.026503883
89	0x3dd24287	0.10266595
90	0xbe4122eb	-0.18860976
91	0x3e75d7e3	0.24008135
92	0x3db2d064	0.087311536
93	0xbd711cee	-0.05886548
94	0xbcf96e20	-0.03044802
95	0xbe0bf00d	-0.13665791
96	0xbe600ce6	-0.2187992
97	0xbd8f63d8	-0.070014656
98	0x3d0abb20	0.033869863
99	0xbbca91a1	-0.006181911
100	0x3e93072d	0.28716412
101	0xbdec0a73	-0.115254305
102	0xbd766dbb	-0.06016324
103	0x3e09ca0b	0.1345598
104	0x3e49d86f	0.19711469
105	0x3e2d4922	0.16922429
106	0x3df794f8	0.120889604
107	0xbe2d4d6a	-0.16924062
108	0xbdce8eee	-0.100858554
109	0xbd88be4b	-0.066769205
110	0xbd0efb54	-0.034907654
111	0x3c9565db	0.018237045
112	0x3d65238e	0.05594211
113	0xbcd39e6f	-0.025832383
114	0x3e3953b0	0.1809833
115	0xbe38c88d	-0.18045254
116	0xbc85c4f0	-0.016329259
117	0x3e2bedfd	0.16790004
118	0xbdb31218	-0.087436855
119	0xbe2efa22	-0.17087606
120	0xbd86f382	-0.06589414
121	0x3e5cab6b	0.21549766
122	0xbe049121	-0.12945987
123	0x3e48343c	0.19551176
124	0xbc2f714b	-0.0107081635
125	0xbce9887f	-0.02850747
126	0x3d42f01f	0.04759228
127	0x3d7b2b4f	0.0613206
128	0xbd68e689	-0.05686048
129	0xbd17f8db	-0.03710256
130	0x3bd7da05	0.0065872693
131	0xbc9537ce	-0.018215086
132	0x3e29a83a	0.1656808
133	0x3c97b077	0.018516762
134	0xbe21606d	-0.1575944
135	0x3dcf1eb0	0.10113275
136	0x3cfc544c	0.030801915
137	0x3cadb4b4	0.02120433
138	0xbdd942db	-0.10608455
139	0xbe5d7439	-0.21626367
140	0x3d89646a	0.067086056
141	0xbdaa45bf	-0.08314084
142	0xbdfc40af	-0.12317025
143	0xbc604063	-0.013687226
144	0xbd805af3	-0.06267347
145	0x3e011793	0.12606649
146	0xbbfc73da	-0.0077042403
147	0x3e016520	0.12636232
148	0xbd91b0ad	-0.07113776
149	0x3d3d88ff	0.046273228
150	0xbd60167b	-0.05470894
151	0xbdb7232b	-0.08942255
152	0x3d0d487a	0.034492947
153	0xbdb914c0	-0.09037161
154	0xbd895a89	-0.06706721
155	0x3db42002	0.087951675
156	0x3e3f786c	0.18698281
157	0xbd524f5b	-0.05134521
158	0xbde56619	-0.11201114
159	0x3cb99009	0.02265169
160	0xbe6498cf	-0.22323917
161	0x3e9f627c	0.31129825
162	0x3dd496f2	0.10380353
163	0x3c7c132c	0.01538543
164	0xbe2bc488	-0.1677419
165	0xbd410252	-0.047121353
166	0xbe1b4c98	-0.15165937
167	0xbc6d6cb7	-0.014491252
168	0xbd1b0d72	-0.03785462
169	0xbdc4a070	-0.096009135
170	0x3e6b84bf	0.22999857
171	0xbe4fef0d	-0.20306034
172	0x3daadad0	0.083425164
173	0xbd25add6	-0.040448986
174	0xbe17b571	-0.14815308
175	0xbe5bf485	-0.21479996
176	0xbe8677e5	-0.26263347
177	0x3e275ae7	0.1634327
178	0xbcdc695c	-0.026905708
179	0x3dae813d	0.08520744
180	0xbd3d7de6	-0.046262644
181	0x3d58bcc2	0.05291439
182	0x3e18553a	0.14876261
183	0xbdd02375	-0.10163013
184	0x3c3344b8	0.010941677
185	0xbd4b8c70	-0.04969448
186	0x3ddb50f8	0.10708803
187	0xbc3e70f9	-0.0116236145
188	0x3d7e2a16	0.062051855
189	0xbc2ddafe	-0.010611294
190	0x3e09c680	0.13454628
191	0x3e72dbfd	0.23716731
192	0x3d627900	0.055291176
193	0xbd83e051	-0.06439269
194	0xbb480b2c	-0.0030524237
195	0x3caea92a	0.021320898
196	0x3dadc087	0.08483987
197	0xbe5e4ecb	-0.21709745
198	0xbdb5e5cd	-0.08881722
199	0xbda37872	-0.079819575
200	0x3afeab10	0.0019429643
201	0xbd8fbfbe	-0.07018994
202	0xba2838bf	-0.0006417147
203	0xbd62abc9	-0.05533961
204	0xbe886e75	-0.26646772
205	0xbd0c45b5	-0.034246165
206	0x3d695c28	0.056972653
207	0x3ce3e705	0.02782012
208	0xbd3ee9f3	-0.04660983
209	0x3e3a1afa	0.18174353
210	0x3b5fd46e	0.0034153718
211	0xbd537f39	-0.051635
212	0xbe16184e	-0.14657709
213	0x3e59647a	0.21229735
214	0x3cf3661d	0.029711777
215	0xbb2611c4	-0.002534018
216	0xbd79e9fc	-0.06101416
217	0xbdafbb77	-0.08580678
218	0x3d25885e	0.040413253
219	0x3d6002f6	0.054690324
220	0x3d253ee6	0.040343188
221	0xbb8841e2	-0.0041582445
222	0x3e37e0b5	0.17956813
223	0xbe7639d8	-0.24045503
224	0xbdcd2a9e	-0.10017894
225	0xbe10c2bf	-0.1413679
226	0x3b82436b	0.003975322
227	0xbc3bbe5c	-0.011458959
228	0xbd9ca65a	-0.076489165
229	0xbc36f8a2	-0.011167677
230	0x3e6c94b3	0.23103599
231	0xbe93771c	-0.2880181
232	0xbc37d8d2	-0.011221128
233	0xbd2cfa64	-0.04223098
234	0xbca93540	-0.020655274
235	0xbde57693	-0.11204257
236	0xbdcf9e44	-0.10137609
237	0xbe07a494	-0.13246375
238	0xbd44ca19	-0.048044298
239	0xbdb6cfdc	-0.08926365
240	0x3dfc17bc	0.123092145
241	0xbd63ae3e	-0.055586092
242	0xbe8feff0	-0.28112745
243	0x3d5b8dd8	0.05360207
244	0xbd633779	-0.055472825
245	0x3c8468c3	0.016163236
246	0x3d3d6cd9	0.046246383
247	0xbd0574d1	-0.032582108
248	0x3dcbc0d2	0.09948887
249	0x3c09534e	0.008381678
250	0x3d9bbecf	0.07604753
251	0x3d81b373	0.06333055
252	0x3d82f576	0.06394474
253	0xbe2e3815	-0.17013581
254	0xba2250fd	-0.0006191878
255	0x3c942f88	0.01808907

arith.constant2 f4 [50, 50]
0	0x3e950add	0.2910985
1	0x3e87aa78	0.26497245
2	0xbd9574ed	-0.072976924
3	0xbe27927d	-0.16364475
4	0x3e47496e	0.19461605
5	0x3e414b64	0.18876415
6	0xbe0d9b33	-0.13828735
7	0xbe43be48	-0.19115555
8	0xbe693dc2	-0.22777465
9	0xbc8d09c0	-0.017216563
10	0xbcd81be4	-0.026380487
11	0x3e72295f	0.23648594
12	0x3e82343c	0.25430477
13	0x3d3aa64b	0.045568746
14	0xbecaa9bd	-0.39582625
15	0x3d8bd074	0.06826869
16	0xbe9a79cc	-0.3017105
17	0xbc494bbd	-0.012286124
18	0x3ea98dd4	0.3311602
19	0x3e0ba042	0.13635352
20	0x3e598a4e	0.21244165
21	0xbe1b935f	-0.15192936
22	0x3d693485	0.056934852
23	0xbc8ccace	-0.017186549
24	0x3d32c076	0.043640576
25	0xbe326beb	-0.1742398
26	0xbe0db878	-0.138399
27	0x3c94e761	0.018176736
28	0xbea457ff	-0.32098386
29	0xbdc5577c	-0.09635827
30	0xbe5ee944	-0.21768671
31	0xbdc6c51f	-0.097055666
32	0x3e3e4e47	0.18584548
33	0x3e8be550	0.2732339
34	0xbd9262cc	-0.0714775
35	0xbe70cfa2	-0.23516706
36	0x3e741f8e	0.23840162
37	0xbde6157a	-0.11234565
38	0xbe1e69ad	-0.1547
39	0xbe5d3582	-0.21602443
40	0xbe79a5d3	-0.24379663
41	0x3e96e378	0.2947042
42	0x3dcfd47c	0.1014795
43	0x3e6bfa45	0.23044689
44	0x3e7549ec	0.2395398
45	0xbe877d29	-0.26462677
46	0xbdeba4d6	-0.11506049
47	0xbda61fea	-0.08111556
48	0x3ca2a307	0.019853128
49	0x3c384b84	0.011248473
50	0xbd29ba26	-0.04143729
51	0x3bae2868	0.0053148754
52	0xbe9141d3	-0.28370532
53	0xbab2b1db	-0.0013633327
54	0xbdb6bd2e	-0.08922802
55	0xbe7600d9	-0.24023761
56	0xbe425bf4	-0.1898039
57	0xbe9f4176	-0.3110463
58	0x3df19068	0.117951214
59	0x39f2108f	0.00046170174
60	0x3d130bb0	0.035899818
61	0x3ddb3146	0.107027575
62	0x3e1a5303	0.15070729
63	0x3e3dbc15	0.18528779
64	0xbd930328	-0.071783364
65	0x3e8392ac	0.2569784
66	0xbe541884	-0.20712477
67	0xbcbd0604	-0.023074158
68	0x3ea80fac	0.32824457
69	0xbdf3cb95	-0.119040646
70	0xbdddf441	-0.10837603
71	0x3e883d9b	0.266095
72	0xbd0d9a07	-0.03457072
73	0xbe860085	-0.2617227
74	0x3e9078ed	0.2821726
75	0xbdfafbcd	-0.122550584
76	0xbeaf69a1	-0.34260276
77	0x3dffc794	0.124892384
78	0xbe0d7406	-0.1381379
79	0x3e67f053	0.2265027
80	0xbcf8ad3c	-0.030356042
81	0x3e5ccf28	0.21563399
82	0xbd6656df	-0.05623519
83	0xbd26a500	-0.0406847
84	0x3e32152a	0.17390886
85	0xbd8a3922	-0.067491785
86	0xbeb27ce8	-0.3486092
87	0xbe3b399a	-0.18283692
88	0x3d1c0904	0.038094535
89	0xbd877cf7	-0.06615632
90	0x3cbdbe3f	0.023162005
91	0x3dbfbf06	0.09362607
92	0x3dc229f0	0.09480655
93	0xbdd32659	-0.103100486
94	0x3e1615d2	0.14656761
95	0xbdb1e413	-0.0868608
96	0xbe6f3f9a	-0.23364106
97	0xbe1b5e9f	-0.15172814
98	0xbe2c765f	-0.1684203
99	0xbbeac708	-0.0071648397
100	0xbabd8040	-0.0014457777
101	0xbd96dea2	-0.073666826
102	0xbd1a4bdb	-0.037669998
103	0xbd836ee7	-0.06417637
104	0x3d3001a8	0.04297033
105	0xbe16525d	-0.14679857
106	0xbe52be44	-0.20580393
107	0xbe90a11c	-0.28247917
108	0xbe0d4c56	-0.13798651
109	0xbe25a7c8	-0.16177285
110	0x3d7751e9	0.06038085
111	0x3e88c9e2	0.26716524
112	0xbe9e2bd7	-0.30892822
113	0xbe2b5839	-0.16732873
114	0xbe89591e	-0.26825804
115	0x3e605220	0.21906328
116	0x3ddd5fc8	0.108092844
117	0x3e260997	0.16214596
118	0xbea5550d	-0.3229145
119	0xbd0a6238	-0.033785075
120	0x3e743be2	0.23850968
121	0xbeb34bb6	-0.350187
122	0xbd0db9a2	-0.03460086
123	0x3db5215d	0.08844254
124	0xbc88157b	-0.016611805
125	0x3e87840d	0.26467934
126	0x3e6c842c	0.23097295
127	0x3df19875	0.11796657
128	0x3d6c67f3	0.05771632
129	0xbe7c10ed	-0.24615832
130	0x3e000397	0.1250137
131	0xbe1601ce	-0.14649126
132	0xbd6f8c12	-0.05848319
133	0xbe7d4d03	-0.24736409
134	0x3ce0632b	0.027391037
135	0x3e156a1f	0.14591263
136	0x3e036556	0.12831625
137	0x3e5c4ba5	0.21513231
138	0x3e2f84a5	0.17140444
139	0xbe144d6f	-0.14482664
140	0x3e12c437	0.14332663
141	0x3dd8b957	0.10582226
142	0x3d75792e	0.05993002
143	0x3e96d356	0.29458112
144	0x3cd61cee	0.026136842
145	0x3e84ee66	0.25963134
146	0x3cad242c	0.021135412
147	0x3c1adf8a	0.00945271
148	0xbd252053	-0.04031403
149	0x3d915a5e	0.07097314
150	0xbe15a0b5	-0.14612086
151	0x3e438706	0.19094476
152	0x3e69856a	0.228048
153	0xbc21596a	-0.009847978
154	0x3ddba0d2	0.107240334
155	0xbe0d6a68	-0.13810122
156	0x3e5ed630	0.21761394
157	0x3d5a8695	0.053351004
158	0xbe13c78e	-0.14431593
159	0x3e550be2	0.20805314
160	0x3e9c241e	0.30496305
161	0x3d892e7c	0.06698319
162	0xbdcf76af	-0.10130059
163	0x3e1f2cb8	0.15544403
164	0x3d8c57a6	0.06852655
165	0xbe73ab51	-0.23795821
166	0x3c8836b1	0.016627641
167	0xbe557a05	-0.20847328
168	0xbea2116f	-0.31653926
169	0x3c0e3299	0.008679056
170	0x3e03c1e5	0.12866934
171	0xbd8ad1c0	-0.06778288
172	0x3c897873	0.016781067
173	0xbdd4da37	-0.10393184
174	0x3e9aeb14	0.30257475
175	0xbe012a66	-0.1261383
176	0x3e792bc0	0.24333096
177	0xbe8858eb	-0.2663034
178	0x3e80a9b9	0.25129488
179	0x3e16fc6f	0.14744733
180	0x3e9f2175	0.31080213
181	0x3dc9f2e3	0.0986078
182	0xbe478d3e	-0.19487473
183	0x3dd0d348	0.10196549
184	0x3dac5d7b	0.084162675
185	0xbe005b2f	-0.12534784
186	0x3e1e3184	0.15448576
187	0xbe19940d	-0.14997883
188	0xbd861ee8	-0.06548864
189	0x3df1b2ef	0.11801707
190	0xbdb2c48e	-0.08728896
191	0x3bc4668f	0.0059936712
192	0x3c67ee6d	0.014155966
193	0x3d024146	0.03180053
194	0x3e5b1088	0.21393025
195	0xbe5e7442	-0.21724036
196	0xbdf75041	-0.12075854
197	0xbd49e2cd	-0.04928856
198	0xbec152f1	-0.37758592
199	0x3e2856c6	0.16439351
200	0xbd1fb2c9	-0.038988862
201	0x3c8f0f2a	0.017463285
202	0xbd588649	-0.05286244
203	0xbced1743	-0.028941756
204	0x3dd945b7	0.10609
205	0x3ece386b	0.40277418
206	0xbdb0271f	-0.08601212
207	0xbda10c36	-0.07863657
208	0x3e57576d	0.21029444
209	0xbc34cc9d	-0.011035112
210	0xbe3c2eb6	-0.18377194
211	0x3ddcdf51	0.10784782
212	0x3df50d0c	0.11965379
213	0xbcb6018f	-0.02221754
214	0x3df89467	0.121376805
215	0xbe325d7a	-0.17418471
216	0xbdccbc96	-0.099969074
217	0x3e22a468	0.15883029
218	0x3e8a1734	0.26970828
219	0xbb4b2e6b	-0.003100301
220	0x3d9525be	0.072825894
221	0xbd8935dd	-0.06699727
222	0xbe9d0588	-0.30668283
223	0xbd38bf5f	-0.04510438
224	0x3e9b0fb3	0.30285415
225	0xbd8556cc	-0.06510696
226	0xbd625c18	-0.05526361
227	0xbcb99f0e	-0.022658851
228	0x3eb00b53	0.3438364
229	0xbe987991	-0.29780248
230	0xbe3cbfd5	-0.18432553
231	0x3da2f20e	0.079563245
232	0xbe0c33a0	-0.13691568
233	0xbca90c24	-0.020635672
234	0x3e55c8de	0.20877406
235	0xbe1b04d2	-0.15138558
236	0x3e62ff3e	0.2216768
237	0x3db56579	0.08857245
238	0x3e22971b	0.15877955
239	0x3d8cfc70	0.06884086
240	0xbc1edec2	-0.009696664
241	0x3d6210e7	0.0551919
242	0xbe66e6ab	-0.2254893
243	0x3d75d945	0.060021657
244	0x3da71299	0.08157844
245	0xbeac79e2	-0.3368674
246	0x3e16f8ec	0.14743394
247	0xbe82fb67	-0.2558243
248	0xbe4342b6	-0.19068417
249	0x3e146ea7	0.14495336
250	0xbe59d14e	-0.2127125
251	0xbd9beef8	-0.07613939
252	0x3e43ac4b	0.19108693
253	0x3e24f494	0.16108924
254	0xbe59bdf5	-0.21263869
255	0xbe803ddb	-0.25047192

arith.constant3 f4 [50, 1]
0	0xbeb59b19	-0.35469893
1	0x3f2d49c3	0.67690676
2	0x3f1a16b6	0.60190904
3	0xbf27e0fc	-0.65577674
4	0x3ec3d8b1	0.3825126
5	0x3de22d64	0.11043814
6	0x3dda2dba	0.10653253
7	0x3e703547	0.23457824
8	0xbeccf7cd	-0.40032807
9	0x3f9246eb	1.1427892
10	0x3ed3fe37	0.41404888
11	0xbd6ef13a	-0.05833552
12	0xbf16ab87	-0.5885548
13	0x3f03b7c1	0.5145226
14	0xbf77067a	-0.9649426
15	0x3f6b0d74	0.918174
16	0x3f9796f9	1.1842948
17	0xbf447a7f	-0.76749414
18	0xbf63c903	-0.88978595
19	0xbf867095	-1.0503107
20	0x3ec0cda2	0.37656885
21	0xbfa0bac1	-1.2556993
22	0xbee33941	-0.4437962
23	0xbe2c9baa	-0.16856256
24	0x3e3eaccb	0.18620603
25	0x3e594ded	0.21221133
26	0x3e81e5b3	0.2537056
27	0x3f4d1e5e	0.8012446
28	0xbe3bd7f4	-0.18344098
29	0x3e159fb8	0.14611709
30	0x3e92cf9e	0.28674024
31	0xbf023fe3	-0.50878733
32	0xbf7cf07f	-0.9880447
33	0x3f865e24	1.049748
34	0x3dcb3c0c	0.099235624
35	0xbd3797f0	-0.044822633
36	0x3f958542	1.1681292
37	0x3e8ed585	0.27897277
38	0x3e8108fc	0.25202167
39	0x3dcca6ff	0.099927895
40	0xbd9ae647	-0.07563453
41	0x3ee123a1	0.43972495
42	0x3f88be03	1.0682987
43	0x3d25e8cf	0.040505227
44	0xbea78154	-0.32715857
45	0x3f92ca2e	1.146795
46	0x3f7e1fd8	0.9926734
47	0x3f9029cf	1.1262759
48	0x3f087ca5	0.5331519
49	0xbf8c4912	-1.0959799
